7767517
207 237
Input                    images                   0 1 images
MemoryData               342                      0 1 342
MemoryData               350                      0 1 350
MemoryData               380                      0 1 380
MemoryData               388                      0 1 388
MemoryData               418                      0 1 418
MemoryData               426                      0 1 426
Convolution              Conv_0                   1 1 images 126 0=16 1=3 3=2 4=1 5=1 6=432
Swish                    Mul_2                    1 1 126 128
Convolution              Conv_3                   1 1 128 129 0=32 1=3 3=2 4=1 5=1 6=4608
Swish                    Mul_5                    1 1 129 131
Split                    splitncnn_0              1 2 131 131_splitncnn_0 131_splitncnn_1
Convolution              Conv_6                   1 1 131_splitncnn_1 132 0=16 1=1 5=1 6=512
Swish                    Mul_8                    1 1 132 134
Split                    splitncnn_1              1 2 134 134_splitncnn_0 134_splitncnn_1
Convolution              Conv_9                   1 1 134_splitncnn_1 135 0=16 1=3 11=1 4=1 14=0 5=1 6=768
Swish                    Mul_11                   1 1 135 137
Convolution              Conv_12                  1 1 137 138 0=16 1=1 11=3 14=1 5=1 6=768
Swish                    Mul_14                   1 1 138 140
BinaryOp                 Add_15                   2 1 134_splitncnn_0 140 141
Convolution              Conv_16                  1 1 131_splitncnn_0 142 0=16 1=1 5=1 6=512
Swish                    Mul_18                   1 1 142 144
Concat                   Concat_19                2 1 141 144 145
Convolution              Conv_20                  1 1 145 146 0=32 1=1 5=1 6=1024
Swish                    Mul_22                   1 1 146 148
Convolution              Conv_23                  1 1 148 149 0=64 1=3 3=2 4=1 5=1 6=18432
Swish                    Mul_25                   1 1 149 151
Split                    splitncnn_2              1 2 151 151_splitncnn_0 151_splitncnn_1
Convolution              Conv_26                  1 1 151_splitncnn_1 152 0=32 1=1 5=1 6=2048
Swish                    Mul_28                   1 1 152 154
Split                    splitncnn_3              1 2 154 154_splitncnn_0 154_splitncnn_1
Convolution              Conv_29                  1 1 154_splitncnn_1 155 0=32 1=3 11=1 4=1 14=0 5=1 6=3072
Swish                    Mul_31                   1 1 155 157
Convolution              Conv_32                  1 1 157 158 0=32 1=1 11=3 14=1 5=1 6=3072
Swish                    Mul_34                   1 1 158 160
BinaryOp                 Add_35                   2 1 154_splitncnn_0 160 161
Split                    splitncnn_4              1 2 161 161_splitncnn_0 161_splitncnn_1
Convolution              Conv_36                  1 1 161_splitncnn_1 162 0=32 1=3 11=1 4=1 14=0 5=1 6=3072
Swish                    Mul_38                   1 1 162 164
Convolution              Conv_39                  1 1 164 165 0=32 1=1 11=3 14=1 5=1 6=3072
Swish                    Mul_41                   1 1 165 167
BinaryOp                 Add_42                   2 1 161_splitncnn_0 167 168
Convolution              Conv_43                  1 1 151_splitncnn_0 169 0=32 1=1 5=1 6=2048
Swish                    Mul_45                   1 1 169 171
Concat                   Concat_46                2 1 168 171 172
Convolution              Conv_47                  1 1 172 173 0=64 1=1 5=1 6=4096
Swish                    Mul_49                   1 1 173 175
Split                    splitncnn_5              1 2 175 175_splitncnn_0 175_splitncnn_1
Convolution              Conv_50                  1 1 175_splitncnn_1 176 0=128 1=3 3=2 4=1 5=1 6=73728
Swish                    Mul_52                   1 1 176 178
Split                    splitncnn_6              1 2 178 178_splitncnn_0 178_splitncnn_1
Convolution              Conv_53                  1 1 178_splitncnn_1 179 0=64 1=1 5=1 6=8192
Swish                    Mul_55                   1 1 179 181
Split                    splitncnn_7              1 2 181 181_splitncnn_0 181_splitncnn_1
Convolution              Conv_56                  1 1 181_splitncnn_1 182 0=64 1=3 11=1 4=1 14=0 5=1 6=12288
Swish                    Mul_58                   1 1 182 184
Convolution              Conv_59                  1 1 184 185 0=64 1=1 11=3 14=1 5=1 6=12288
Swish                    Mul_61                   1 1 185 187
BinaryOp                 Add_62                   2 1 181_splitncnn_0 187 188
Split                    splitncnn_8              1 2 188 188_splitncnn_0 188_splitncnn_1
Convolution              Conv_63                  1 1 188_splitncnn_1 189 0=64 1=3 11=1 4=1 14=0 5=1 6=12288
Swish                    Mul_65                   1 1 189 191
Convolution              Conv_66                  1 1 191 192 0=64 1=1 11=3 14=1 5=1 6=12288
Swish                    Mul_68                   1 1 192 194
BinaryOp                 Add_69                   2 1 188_splitncnn_0 194 195
Split                    splitncnn_9              1 2 195 195_splitncnn_0 195_splitncnn_1
Convolution              Conv_70                  1 1 195_splitncnn_1 196 0=64 1=3 11=1 4=1 14=0 5=1 6=12288
Swish                    Mul_72                   1 1 196 198
Convolution              Conv_73                  1 1 198 199 0=64 1=1 11=3 14=1 5=1 6=12288
Swish                    Mul_75                   1 1 199 201
BinaryOp                 Add_76                   2 1 195_splitncnn_0 201 202
Convolution              Conv_77                  1 1 178_splitncnn_0 203 0=64 1=1 5=1 6=8192
Swish                    Mul_79                   1 1 203 205
Concat                   Concat_80                2 1 202 205 206
Convolution              Conv_81                  1 1 206 207 0=128 1=1 5=1 6=16384
Swish                    Mul_83                   1 1 207 209
Split                    splitncnn_10             1 2 209 209_splitncnn_0 209_splitncnn_1
Convolution              Conv_84                  1 1 209_splitncnn_1 210 0=256 1=3 3=2 4=1 5=1 6=294912
Swish                    Mul_86                   1 1 210 212
Split                    splitncnn_11             1 2 212 212_splitncnn_0 212_splitncnn_1
Convolution              Conv_87                  1 1 212_splitncnn_1 213 0=128 1=1 5=1 6=32768
Swish                    Mul_89                   1 1 213 215
Split                    splitncnn_12             1 2 215 215_splitncnn_0 215_splitncnn_1
Convolution              Conv_90                  1 1 215_splitncnn_1 216 0=128 1=3 11=1 4=1 14=0 5=1 6=49152
Swish                    Mul_92                   1 1 216 218
Convolution              Conv_93                  1 1 218 219 0=128 1=1 11=3 14=1 5=1 6=49152
Swish                    Mul_95                   1 1 219 221
BinaryOp                 Add_96                   2 1 215_splitncnn_0 221 222
Convolution              Conv_97                  1 1 212_splitncnn_0 223 0=128 1=1 5=1 6=32768
Swish                    Mul_99                   1 1 223 225
Concat                   Concat_100               2 1 222 225 226
Convolution              Conv_101                 1 1 226 227 0=256 1=1 5=1 6=65536
Swish                    Mul_103                  1 1 227 229
Convolution              Conv_104                 1 1 229 230 0=128 1=1 5=1 6=32768
Swish                    Mul_106                  1 1 230 232
Split                    splitncnn_13             1 2 232 232_splitncnn_0 232_splitncnn_1
Pooling                  MaxPool_107              1 1 232_splitncnn_1 233 1=5 3=2 5=1
Split                    splitncnn_14             1 2 233 233_splitncnn_0 233_splitncnn_1
Pooling                  MaxPool_108              1 1 233_splitncnn_1 234 1=5 3=2 5=1
Split                    splitncnn_15             1 2 234 234_splitncnn_0 234_splitncnn_1
Pooling                  MaxPool_109              1 1 234_splitncnn_1 235 1=5 3=2 5=1
Concat                   Concat_110               4 1 232_splitncnn_0 233_splitncnn_0 234_splitncnn_0 235 236
Convolution              Conv_111                 1 1 236 237 0=256 1=1 5=1 6=131072
Swish                    Mul_113                  1 1 237 239
Convolution              Conv_114                 1 1 239 240 0=128 1=1 5=1 6=32768
Swish                    Mul_116                  1 1 240 242
Split                    splitncnn_16             1 2 242 242_splitncnn_0 242_splitncnn_1
DeconvolutionDepthWise   ConvTranspose_117        1 1 242_splitncnn_1 243 0=128 1=4 3=2 4=1 5=1 6=2048 7=128
Concat                   Concat_118               2 1 243 209_splitncnn_0 244
Split                    splitncnn_17             1 2 244 244_splitncnn_0 244_splitncnn_1
Convolution              Conv_119                 1 1 244_splitncnn_1 245 0=64 1=1 5=1 6=16384
Swish                    Mul_121                  1 1 245 247
Convolution              Conv_122                 1 1 247 248 0=64 1=3 11=1 4=1 14=0 5=1 6=12288
Swish                    Mul_124                  1 1 248 250
Convolution              Conv_125                 1 1 250 251 0=64 1=1 11=3 14=1 5=1 6=12288
Swish                    Mul_127                  1 1 251 253
Convolution              Conv_128                 1 1 244_splitncnn_0 254 0=64 1=1 5=1 6=16384
Swish                    Mul_130                  1 1 254 256
Concat                   Concat_131               2 1 253 256 257
Convolution              Conv_132                 1 1 257 258 0=128 1=1 5=1 6=16384
Swish                    Mul_134                  1 1 258 260
Convolution              Conv_135                 1 1 260 261 0=64 1=1 5=1 6=8192
Swish                    Mul_137                  1 1 261 263
Split                    splitncnn_18             1 2 263 263_splitncnn_0 263_splitncnn_1
DeconvolutionDepthWise   ConvTranspose_138        1 1 263_splitncnn_1 264 0=64 1=4 3=2 4=1 5=1 6=1024 7=64
Concat                   Concat_139               2 1 264 175_splitncnn_0 265
Split                    splitncnn_19             1 2 265 265_splitncnn_0 265_splitncnn_1
Convolution              Conv_140                 1 1 265_splitncnn_1 266 0=32 1=1 5=1 6=4096
Swish                    Mul_142                  1 1 266 268
Convolution              Conv_143                 1 1 268 269 0=32 1=3 11=1 4=1 14=0 5=1 6=3072
Swish                    Mul_145                  1 1 269 271
Convolution              Conv_146                 1 1 271 272 0=32 1=1 11=3 14=1 5=1 6=3072
Swish                    Mul_148                  1 1 272 274
Convolution              Conv_149                 1 1 265_splitncnn_0 275 0=32 1=1 5=1 6=4096
Swish                    Mul_151                  1 1 275 277
Concat                   Concat_152               2 1 274 277 278
Convolution              Conv_153                 1 1 278 279 0=64 1=1 5=1 6=4096
Swish                    Mul_155                  1 1 279 281
Split                    splitncnn_20             1 2 281 281_splitncnn_0 281_splitncnn_1
Convolution              Conv_156                 1 1 281_splitncnn_1 282 0=64 1=3 3=2 4=1 5=1 6=36864
Swish                    Mul_158                  1 1 282 284
Concat                   Concat_159               2 1 284 263_splitncnn_0 285
Split                    splitncnn_21             1 2 285 285_splitncnn_0 285_splitncnn_1
Convolution              Conv_160                 1 1 285_splitncnn_1 286 0=64 1=1 5=1 6=8192
Swish                    Mul_162                  1 1 286 288
Convolution              Conv_163                 1 1 288 289 0=64 1=3 11=1 4=1 14=0 5=1 6=12288
Swish                    Mul_165                  1 1 289 291
Convolution              Conv_166                 1 1 291 292 0=64 1=1 11=3 14=1 5=1 6=12288
Swish                    Mul_168                  1 1 292 294
Convolution              Conv_169                 1 1 285_splitncnn_0 295 0=64 1=1 5=1 6=8192
Swish                    Mul_171                  1 1 295 297
Concat                   Concat_172               2 1 294 297 298
Convolution              Conv_173                 1 1 298 299 0=128 1=1 5=1 6=16384
Swish                    Mul_175                  1 1 299 301
Split                    splitncnn_22             1 2 301 301_splitncnn_0 301_splitncnn_1
ConvolutionDepthWise     Conv_176                 1 1 301_splitncnn_1 302 0=128 1=5 3=2 4=2 5=1 6=3200 7=128
Swish                    Mul_178                  1 1 302 304
Concat                   Concat_179               2 1 304 242_splitncnn_0 305
Split                    splitncnn_23             1 2 305 305_splitncnn_0 305_splitncnn_1
Convolution              Conv_180                 1 1 305_splitncnn_1 306 0=128 1=1 5=1 6=32768
Swish                    Mul_182                  1 1 306 308
Convolution              Conv_183                 1 1 308 309 0=128 1=3 11=1 4=1 14=0 5=1 6=49152
Swish                    Mul_185                  1 1 309 311
Convolution              Conv_186                 1 1 311 312 0=128 1=1 11=3 14=1 5=1 6=49152
Swish                    Mul_188                  1 1 312 314
Convolution              Conv_189                 1 1 305_splitncnn_0 315 0=128 1=1 5=1 6=32768
Swish                    Mul_191                  1 1 315 317
Concat                   Concat_192               2 1 314 317 318
Convolution              Conv_193                 1 1 318 319 0=256 1=1 5=1 6=65536
Swish                    Mul_195                  1 1 319 321
Convolution              Conv_196                 1 1 281_splitncnn_0 322 0=18 1=1 5=1 6=1152
Reshape                  Reshape_197              1 1 322 334 0=-1 1=6 2=3
Permute                  Transpose_198            1 1 334 335 0=1
Sigmoid                  Sigmoid_199              1 1 335 336
Slice                    Split_200                1 3 336 337 338 339 -23300=3,2,2,-233 1=3
Eltwise                  Add_204                  2 1 337 342 343 0=1 -23301=2,2.000000e+00,1.000000e+00
BinaryOp                 Mul_206                  1 1 343 345 0=2 1=1 2=8.000000e+00
BinaryOp                 Mul_208                  1 1 338 347 0=2 1=1 2=2.000000e+00
BinaryOp                 Pow_210                  1 1 347 349 0=6 1=1 2=2.000000e+00
BinaryOp                 Mul_212                  2 1 349 350 351 0=2
Concat                   Concat_213               3 1 345 351 339 352 0=3
Reshape                  Reshape_214              1 1 352 359 0=6 1=-1
Convolution              Conv_215                 1 1 301_splitncnn_0 360 0=18 1=1 5=1 6=2304
Reshape                  Reshape_216              1 1 360 372 0=-1 1=6 2=3
Permute                  Transpose_217            1 1 372 373 0=1
Sigmoid                  Sigmoid_218              1 1 373 374
Slice                    Split_219                1 3 374 375 376 377 -23300=3,2,2,-233 1=3
Eltwise                  Add_223                  2 1 375 380 381 0=1 -23301=2,2.000000e+00,1.000000e+00
BinaryOp                 Mul_225                  1 1 381 383 0=2 1=1 2=1.600000e+01
BinaryOp                 Mul_227                  1 1 376 385 0=2 1=1 2=2.000000e+00
BinaryOp                 Pow_229                  1 1 385 387 0=6 1=1 2=2.000000e+00
BinaryOp                 Mul_231                  2 1 387 388 389 0=2
Concat                   Concat_232               3 1 383 389 377 390 0=3
Reshape                  Reshape_233              1 1 390 397 0=6 1=-1
Convolution              Conv_234                 1 1 321 398 0=18 1=1 5=1 6=4608
Reshape                  Reshape_235              1 1 398 410 0=-1 1=6 2=3
Permute                  Transpose_236            1 1 410 411 0=1
Sigmoid                  Sigmoid_237              1 1 411 412
Slice                    Split_238                1 3 412 413 414 415 -23300=3,2,2,-233 1=3
Eltwise                  Add_242                  2 1 413 418 419 0=1 -23301=2,2.000000e+00,1.000000e+00
BinaryOp                 Mul_244                  1 1 419 421 0=2 1=1 2=3.200000e+01
BinaryOp                 Mul_246                  1 1 414 423 0=2 1=1 2=2.000000e+00
BinaryOp                 Pow_248                  1 1 423 425 0=6 1=1 2=2.000000e+00
BinaryOp                 Mul_250                  2 1 425 426 427 0=2
Concat                   Concat_251               3 1 421 427 415 428 0=3
Reshape                  Reshape_252              1 1 428 435 0=6 1=-1
Concat                   Concat_253               3 1 359 397 435 output
